Epoch 2000/2000
 - 0s - loss: 1.4902 - acc: 0.3864 - val_loss: 1.0004 - val_acc: 1.0000
_________________________________________________________________
Layer (type)                 Output Shape              Param #   
=================================================================
dense_1 (Dense)              (None, 23)                115       
_________________________________________________________________
dropout_1 (Dropout)          (None, 23)                0         
_________________________________________________________________
dense_2 (Dense)              (None, 17)                408       
_________________________________________________________________
dropout_2 (Dropout)          (None, 17)                0         
_________________________________________________________________
dense_3 (Dense)              (None, 12)                216       
_________________________________________________________________
dropout_3 (Dropout)          (None, 12)                0         
_________________________________________________________________
dense_4 (Dense)              (None, 6)                 78        
=================================================================
Total params: 817
Trainable params: 817
Non-trainable params: 0
_________________________________________________________________

  =============================================
  Keras MLP - Model Configuration
  =============================================
  Training set file: G2eFoosball_20190103b.csv
  Data size: (312, 29) 
…
