Epoch 2000/2000
 - 0s - loss: 1.3680 - acc: 0.4954 - val_loss: 1.3930 - val_acc: 0.7500
_________________________________________________________________
Layer (type)                 Output Shape              Param #   
=================================================================
dense_1 (Dense)              (None, 20)                100       
_________________________________________________________________
dropout_1 (Dropout)          (None, 20)                0         
_________________________________________________________________
dense_2 (Dense)              (None, 16)                336       
_________________________________________________________________
dropout_2 (Dropout)          (None, 16)                0         
_________________________________________________________________
dense_3 (Dense)              (None, 11)                187       
_________________________________________________________________
dropout_3 (Dropout)          (None, 11)                0         
_________________________________________________________________
dense_4 (Dense)              (None, 6)                 72        
=================================================================
Total params: 695
Trainable params: 695
Non-trainable params: 0
_________________________________________________________________

  =============================================
  Keras MLP - Model Configuration
  =============================================
  Training set file: G2eFoosball_20190114.csv
  Data size: (338, 25) 
…
