Epoch 1000/1000
 - 0s - loss: 1.2332 - acc: 0.4758 - val_loss: 1.6172 - val_acc: 0.7500
_________________________________________________________________
Layer (type)                 Output Shape              Param #   
=================================================================
dense_1 (Dense)              (None, 21)                105       
_________________________________________________________________
dropout_1 (Dropout)          (None, 21)                0         
_________________________________________________________________
dense_2 (Dense)              (None, 16)                352       
_________________________________________________________________
dropout_2 (Dropout)          (None, 16)                0         
_________________________________________________________________
dense_3 (Dense)              (None, 11)                187       
_________________________________________________________________
dropout_3 (Dropout)          (None, 11)                0         
_________________________________________________________________
dense_4 (Dense)              (None, 6)                 72        
=================================================================
Total params: 716
Trainable params: 716
Non-trainable params: 0
_________________________________________________________________

  =============================================
  Keras MLP - Model Configuration
  =============================================
  Training set file: G2eFoosball_20190123.csv
  Data size: (364, 26) 
…
