Epoch 2000/2000
 - 0s - loss: 0.9724 - acc: 0.5941 - val_loss: 1.5078 - val_acc: 0.2500
_________________________________________________________________
Layer (type)                 Output Shape              Param #   
=================================================================
dense_1 (Dense)              (None, 21)                105       
_________________________________________________________________
dropout_1 (Dropout)          (None, 21)                0         
_________________________________________________________________
dense_2 (Dense)              (None, 16)                352       
_________________________________________________________________
dropout_2 (Dropout)          (None, 16)                0         
_________________________________________________________________
dense_3 (Dense)              (None, 11)                187       
_________________________________________________________________
dropout_3 (Dropout)          (None, 11)                0         
_________________________________________________________________
dense_4 (Dense)              (None, 6)                 72        
=================================================================
Total params: 716
Trainable params: 716
Non-trainable params: 0
_________________________________________________________________

  =============================================
  Keras MLP - Model Configuration
  =============================================
  Training set file: G2eFoosball_20190117a.csv
  Data size: (353, 26) 
…
