Epoch 1000/1000
 - 0s - loss: 1.3164 - acc: 0.4930 - val_loss: 1.8035 - val_acc: 0.5000
_________________________________________________________________
Layer (type)                 Output Shape              Param #   
=================================================================
dense_1 (Dense)              (None, 21)                105       
_________________________________________________________________
dropout_1 (Dropout)          (None, 21)                0         
_________________________________________________________________
dense_2 (Dense)              (None, 16)                352       
_________________________________________________________________
dropout_2 (Dropout)          (None, 16)                0         
_________________________________________________________________
dense_3 (Dense)              (None, 11)                187       
_________________________________________________________________
dropout_3 (Dropout)          (None, 11)                0         
_________________________________________________________________
dense_4 (Dense)              (None, 6)                 72        
=================================================================
Total params: 716
Trainable params: 716
Non-trainable params: 0
_________________________________________________________________

  =============================================
  Keras MLP - Model Configuration
  =============================================
  Training set file: G2eFoosball_20190128.csv
  Data size: (372, 26) 
…
