Epoch 1000/1000
 - 0s - loss: 1.6420 - acc: 0.3193 - val_loss: 1.1377 - val_acc: 1.0000
_________________________________________________________________
Layer (type)                 Output Shape              Param #   
=================================================================
dense_1 (Dense)              (None, 30)                150       
_________________________________________________________________
dropout_1 (Dropout)          (None, 30)                0         
_________________________________________________________________
dense_2 (Dense)              (None, 20)                620       
_________________________________________________________________
dropout_2 (Dropout)          (None, 20)                0         
_________________________________________________________________
dense_3 (Dense)              (None, 15)                315       
_________________________________________________________________
dropout_3 (Dropout)          (None, 15)                0         
_________________________________________________________________
dense_4 (Dense)              (None, 6)                 96        
=================================================================
Total params: 1,181
Trainable params: 1,181
Non-trainable params: 0
_________________________________________________________________

  =============================================
  Keras MLP - Model Configuration
  =============================================
  Training set file: G2eFoosball_20190430.csv
  Data size: (507, 20) 
…
